…
 {'bn_res': 200, 'tn_res': 1, 'ld': 100, 'X_func_shift': np.float64(-1485.538476351167), 'X_func_scale': np.float64(340.1185777695776), 'X_loc_shift': np.float64(0.0), 'X_loc_scale': np.float64(0.0005), 'out_shift': np.float64(1.0744879013817246e-05), 'out_scale': np.float64(1.9361471092413482e-07), 'eta': 0.1, 'gamma': 0.99, 'get_snr': True, 'Lambda_max': 9.999999999999991, 'num_epochs': 10000}
==========================================================================================
Layer (type:depth-idx)                   Output Shape              Param #
==========================================================================================
DeepONet                                 [1, 500]                  --
├─Sequential: 1-1                        [1, 100]                  --
│    └─Linear: 2-1                       [1, 100]                  20,100
│    └─GELU: 2-2                         [1, 100]                  --
│    └─Linear: 2-3                       [1, 100]                  10,100
│    └─GELU: 2-4                         [1, 100]                  --
│    └─Linear: 2-5                       [1, 100]                  10,100
│    └─GELU: 2-6                         [1, 100]                  --
│    └─Linear: 2-7                       [1, 100]                  10,100
│    └─GELU: 2-8                         [1, 100]                  --
│    └─Linear: 2-9                       [1, 100]                  10,100
├─Sequential: 1-2                        [500, 100]                --
│    └─Linear: 2-10                      [500, 100]                200
│    └─GELU: 2-11                        [500, 100]                --
│    └─Linear: 2-12                      [500, 100]                10,100
│    └─GELU: 2-13                        [500, 100]                --
│    └─Linear: 2-14                      [500, 100]                10,100
│    └─GELU: 2-15                        [500, 100]                --
│    └─Linear: 2-16                      [500, 100]                10,100
│    └─GELU: 2-17                        [500, 100]                --
│    └─Linear: 2-18                      [500, 100]                10,100
==========================================================================================
Total params: 101,100
Trainable params: 101,100
Non-trainable params: 0
Total mult-adds (Units.MEGABYTES): 20.36
==========================================================================================
Input size (MB): 0.00
Forward/backward pass size (MB): 2.00
Params size (MB): 0.40
Estimated Total Size (MB): 2.41
…
