…
 {'nx': 64, 'ny': 64, 'nf': 1, 'd_emb': 128, 'lb': 1, 'lf': 51, 'num_epochs': 500, 'inp_shift': np.float64(0.007669870189599345), 'inp_scale': np.float64(0.061450183570653995), 'out_shift': np.float64(-0.001635048307912137), 'out_scale': np.float64(0.03807830166415873), 't_shift': np.float64(0.0), 't_scale': np.float64(1.0), 'eta': 0.1, 'gamma': 0.99, 'do_rba': True, 'get_snr': True, 'Lambda_max': 9.999999999999991}
=========================================================================================================
Layer (type:depth-idx)                                  Output Shape              Param #
=========================================================================================================
Unet2D                                                  [1, 1, 64, 64]            --
├─Conv2d: 1-1                                           [1, 16, 64, 64]           2,368
├─Sequential: 1-2                                       [1, 64]                   --
│    └─SinusoidalPosEmb: 2-1                            [1, 16]                   --
│    └─Linear: 2-2                                      [1, 64]                   1,088
│    └─GELU: 2-3                                        [1, 64]                   --
│    └─Linear: 2-4                                      [1, 64]                   4,160
├─ModuleList: 1-3                                       --                        --
│    └─ModuleList: 2-5                                  --                        --
│    │    └─ResnetBlock: 3-1                            [1, 16, 64, 64]           6,784
│    │    └─ResnetBlock: 3-2                            [1, 16, 64, 64]           6,784
│    │    └─Residual: 3-3                               [1, 16, 64, 64]           8,240
│    │    └─Sequential: 3-4                             [1, 16, 32, 32]           1,040
│    └─ModuleList: 2-6                                  --                        --
│    │    └─ResnetBlock: 3-5                            [1, 16, 32, 32]           6,784
│    │    └─ResnetBlock: 3-6                            [1, 16, 32, 32]           6,784
│    │    └─Residual: 3-7                               [1, 16, 32, 32]           8,240
│    │    └─Sequential: 3-8                             [1, 32, 16, 16]           2,080
│    └─ModuleList: 2-7                                  --                        --
│    │    └─ResnetBlock: 3-9                            [1, 32, 16, 16]           22,784
│    │    └─ResnetBlock: 3-10                           [1, 32, 16, 16]           22,784
│    │    └─Residual: 3-11                              [1, 32, 16, 16]           16,480
│    │    └─Sequential: 3-12                            [1, 64, 8, 8]             8,256
│    └─ModuleList: 2-8                                  --                        --
│    │    └─ResnetBlock: 3-13                           [1, 64, 8, 8]             82,432
│    │    └─ResnetBlock: 3-14                           [1, 64, 8, 8]             82,432
│    │    └─Residual: 3-15                              [1, 64, 8, 8]             32,960
│    │    └─Conv2d: 3-16                                [1, 128, 8, 8]            73,856
├─ResnetBlock: 1-4                                      [1, 128, 8, 8]            --
│    └─Sequential: 2-9                                  [1, 256]                  --
│    │    └─SiLU: 3-17                                  [1, 64]                   --
│    │    └─Linear: 3-18                                [1, 256]                  16,640
│    └─Block: 2-10                                      [1, 128, 8, 8]            --
│    │    └─Conv2d: 3-19                                [1, 128, 8, 8]            147,584
│    │    └─GroupNorm: 3-20                             [1, 128, 8, 8]            256
│    │    └─SiLU: 3-21                                  [1, 128, 8, 8]            --
│    └─Block: 2-11                                      [1, 128, 8, 8]            --
│    │    └─Conv2d: 3-22                                [1, 128, 8, 8]            147,584
│    │    └─GroupNorm: 3-23                             [1, 128, 8, 8]            256
│    │    └─SiLU: 3-24                                  [1, 128, 8, 8]            --
│    └─Identity: 2-12                                   [1, 128, 8, 8]            --
├─Residual: 1-5                                         [1, 128, 8, 8]            --
│    └─PreNorm: 2-13                                    [1, 128, 8, 8]            --
│    │    └─LayerNorm: 3-25                             [1, 128, 8, 8]            128
│    │    └─Attention: 3-26                             [1, 128, 8, 8]            65,664
├─ResnetBlock: 1-6                                      [1, 128, 8, 8]            --
│    └─Sequential: 2-14                                 [1, 256]                  --
│    │    └─SiLU: 3-27                                  [1, 64]                   --
│    │    └─Linear: 3-28                                [1, 256]                  16,640
│    └─Block: 2-15                                      [1, 128, 8, 8]            --
│    │    └─Conv2d: 3-29                                [1, 128, 8, 8]            147,584
│    │    └─GroupNorm: 3-30                             [1, 128, 8, 8]            256
│    │    └─SiLU: 3-31                                  [1, 128, 8, 8]            --
│    └─Block: 2-16                                      [1, 128, 8, 8]            --
│    │    └─Conv2d: 3-32                                [1, 128, 8, 8]            147,584
│    │    └─GroupNorm: 3-33                             [1, 128, 8, 8]            256
│    │    └─SiLU: 3-34                                  [1, 128, 8, 8]            --
│    └─Identity: 2-17                                   [1, 128, 8, 8]            --
├─ModuleList: 1-7                                       --                        --
│    └─ModuleList: 2-18                                 --                        --
│    │    └─ResnetBlock: 3-35                           [1, 128, 8, 8]            410,752
│    │    └─ResnetBlock: 3-36                           [1, 128, 8, 8]            410,752
│    │    └─Residual: 3-37                              [1, 128, 8, 8]            65,920
│    │    └─Sequential: 3-38                            [1, 64, 16, 16]           73,792
│    └─ModuleList: 2-19                                 --                        --
│    │    └─ResnetBlock: 3-39                           [1, 64, 16, 16]           107,072
│    │    └─ResnetBlock: 3-40                           [1, 64, 16, 16]           107,072
│    │    └─Residual: 3-41                              [1, 64, 16, 16]           32,960
│    │    └─Sequential: 3-42                            [1, 32, 32, 32]           18,464
│    └─ModuleList: 2-20                                 --                        --
│    │    └─ResnetBlock: 3-43                           [1, 32, 32, 32]           28,960
│    │    └─ResnetBlock: 3-44                           [1, 32, 32, 32]           28,960
│    │    └─Residual: 3-45                              [1, 32, 32, 32]           16,480
│    │    └─Sequential: 3-46                            [1, 16, 64, 64]           4,624
│    └─ModuleList: 2-21                                 --                        --
│    │    └─ResnetBlock: 3-47                           [1, 16, 64, 64]           9,616
│    │    └─ResnetBlock: 3-48                           [1, 16, 64, 64]           9,616
│    │    └─Residual: 3-49                              [1, 16, 64, 64]           8,240
│    │    └─Conv2d: 3-50                                [1, 16, 64, 64]           2,320
├─ResnetBlock: 1-8                                      [1, 16, 64, 64]           --
│    └─Sequential: 2-22                                 [1, 32]                   --
│    │    └─SiLU: 3-51                                  [1, 64]                   --
│    │    └─Linear: 3-52                                [1, 32]                   2,080
│    └─Block: 2-23                                      [1, 16, 64, 64]           --
│    │    └─Conv2d: 3-53                                [1, 16, 64, 64]           4,624
│    │    └─GroupNorm: 3-54                             [1, 16, 64, 64]           32
│    │    └─SiLU: 3-55                                  [1, 16, 64, 64]           --
│    └─Block: 2-24                                      [1, 16, 64, 64]           --
│    │    └─Conv2d: 3-56                                [1, 16, 64, 64]           2,320
│    │    └─GroupNorm: 3-57                             [1, 16, 64, 64]           32
│    │    └─SiLU: 3-58                                  [1, 16, 64, 64]           --
│    └─Conv2d: 2-25                                     [1, 16, 64, 64]           528
├─Conv2d: 1-9                                           [1, 1, 64, 64]            17
=========================================================================================================
Total params: 2,432,001
Trainable params: 2,432,001
Non-trainable params: 0
Total mult-adds (Units.MEGABYTES): 545.94
=========================================================================================================
Input size (MB): 0.02
Forward/backward pass size (MB): 60.28
Params size (MB): 9.73
…
